examples/DRL/nets/unsafe_agent0.pt (torch, 21279 bytes, 6 tensors)

bias f8 [20]
000000 00 00 00 c0 8e c0 d7 3f 00 00 00 60 79 41 c7 bf
       0.37112778425216675 -0.18168561160564423
000010 00 00 00 c0 29 e0 d6 3f 00 00 00 20 45 dc da 3f
       0.3574318289756775 0.4196942150592804
000020 00 00 00 00 20 4d d4 3f 00 00 00 c0 b9 58 dc 3f
       0.31720733642578125 0.4429153800010681
000030 00 00 00 c0 84 13 a6 bf 00 00 00 80 5e 9a e0 3f
       -0.04311766475439072 0.5188438892364502
000040 00 00 00 a0 04 85 c1 3f 00 00 00 00 70 55 b5 bf
       0.13687188923358917 -0.08333492279052734
000050 00 00 00 80 44 7a c7 3f 00 00 00 00 ea 69 95 bf
       0.18341881036758423 -0.020911842584609985
000060 00 00 00 e0 29 cc a9 3f 00 00 00 80 a4 1a a9 3f
       0.050385769456624985 0.049031391739845276
000070 00 00 00 e0 47 8a b0 3f 00 00 00 60 8e e3 b8 bf
       0.06460999697446823 -0.0972222313284874
000080 00 00 00 c0 83 4c da 3f 00 00 00 a0 b6 1c b7 3f
       0.41092008352279663 0.0902818813920021
000090 00 00 00 60 05 29 ae 3f 00 00 00 60 c6 cb da 3f
       0.058906715363264084 0.4186874330043793

bias f8 [20]
000000 00 00 00 60 7d 40 9a 3f 00 00 00 c0 83 b7 9c 3f
       0.02563663385808468 0.028043802827596664
000010 00 00 00 60 f0 2e e0 3f 00 00 00 60 31 ad c4 bf
       0.5057298541069031 -0.16153542697429657
000020 00 00 00 20 33 33 be bf 00 00 00 a0 07 b8 b6 bf
       -0.11796874552965164 -0.08874557167291641
000030 00 00 00 a0 25 11 c1 3f 00 00 00 e0 eb 9f e7 3f
       0.13333578407764435 0.7382716536521912
000040 00 00 00 80 92 dc df bf 00 00 00 40 5c fe d3 3f
       -0.4978376626968384 0.3123999238014221
000050 00 00 00 20 6e da d3 bf 00 00 00 e0 02 f9 e2 3f
       -0.31020691990852356 0.5928968787193298
000060 00 00 00 20 ff fe de 3f 00 00 00 e0 c4 60 ac bf
       0.4843137562274933 -0.05542578920722008
000070 00 00 00 a0 23 ac a5 bf 00 00 00 80 f1 cb d6 3f
       -0.04232894256711006 0.356197714805603
000080 00 00 00 60 4b 82 e1 3f 00 00 00 60 bf a4 ca bf
       0.5471550822257996 -0.20815269649028778
000090 00 00 00 60 c6 15 c8 bf 00 00 00 e0 77 ba 71 3f
       -0.18816451728343964 0.004328220617026091

bias f8 [20]
000000 00 00 00 40 64 00 db 3f 00 00 00 00 e0 38 ca bf
       0.42189890146255493 -0.20486068725585938
000010 00 00 00 c0 a6 38 63 bf 00 00 00 20 27 49 b9 3f
       -0.0023463494144380093 0.09877247363328934
000020 00 00 00 40 7c ad cc bf 00 00 00 c0 fb 56 d6 3f
       -0.22404435276985168 0.3490590453147888
000030 00 00 00 40 f5 0a af bf 00 00 00 c0 0d ec da 3f
       -0.06063047796487808 0.42065757513046265
000040 00 00 00 a0 9d a0 b4 3f 00 00 00 40 0b 8e df 3f
       0.08057580143213272 0.4930446743965149
000050 00 00 00 80 64 43 cd bf 00 00 00 80 66 5b be 3f
       -0.22861915826797485 0.11858215928077698
000060 00 00 00 60 b7 ef a9 bf 00 00 00 00 82 a8 b3 bf
       -0.050657015293836594 -0.0767899751663208
000070 00 00 00 e0 78 7b b9 bf 00 00 00 00 b7 14 b4 3f
       -0.09954028576612473 0.0784410834312439
000080 00 00 00 20 f2 a4 e3 3f 00 00 00 60 a6 7c bd bf
       0.6138849854469299 -0.1151832565665245
000090 00 00 00 c0 b2 45 d0 bf 00 00 00 80 3e bc bd bf
       -0.2542540431022644 -0.11615362763404846

bias f8 [20]
000000 00 00 00 80 93 7e b5 3f 00 00 00 00 55 88 df 3f
       0.08396264910697937 0.49269604682922363
000010 00 00 00 40 d0 bd d4 bf 00 00 00 60 d7 2d da 3f
       -0.3240852952003479 0.409047931432724
000020 00 00 00 40 2e 6d c8 3f 00 00 00 80 b4 a0 d6 bf
       0.19083192944526672 -0.35355865955352783
000030 00 00 00 00 aa 37 96 3f 00 00 00 c0 2c 44 d5 3f
       0.02169671654701233 0.3322860598564148
000040 00 00 00 60 76 2a e6 3f 00 00 00 a0 02 03 da bf
       0.6926833987236023 -0.40643373131752014
000050 00 00 00 60 1e 77 e3 3f 00 00 00 80 2a 49 db 3f
       0.6082908511161804 0.4263406991958618
000060 00 00 00 00 b2 da c3 3f 00 00 00 60 54 f3 a7 bf
       0.15511155128479004 -0.04677833244204521
000070 00 00 00 00 d7 0a e0 bf 00 00 00 e0 04 c6 9a bf
       -0.5013232231140137 -0.02614600770175457
000080 00 00 00 c0 92 b3 d0 3f 00 00 00 40 77 55 af 3f
       0.26096028089523315 0.06119892746210098
000090 00 00 00 00 40 8e d7 3f 00 00 00 c0 f9 d9 d7 3f
       0.3680572509765625 0.3726791739463806

bias f8 [20]
000000 00 00 00 20 ec 1e d5 3f 00 00 00 40 34 55 cc 3f
       0.33001235127449036 0.22135022282600403
000010 00 00 00 60 98 0a cd 3f 00 00 00 20 4a c7 e5 3f
       0.2268858402967453 0.6805773377418518
000020 00 00 00 00 2c 91 c7 3f 00 00 00 80 00 f1 d1 bf
       0.18411779403686523 -0.28033459186553955
000030 00 00 00 c0 b0 b2 d3 3f 00 00 00 40 58 1b ce 3f
       0.3077813982963562 0.23520949482917786
000040 00 00 00 60 bf d6 9c 3f 00 00 00 20 b3 83 70 3f
       0.028162946924567223 0.004031848628073931
000050 00 00 00 00 c9 d5 c9 bf 00 00 00 60 72 a5 e1 3f
       -0.2018367052078247 0.5514461398124695
000060 00 00 00 80 ac 25 cf 3f 00 00 00 80 37 41 e0 3f
       0.2433372139930725 0.5079610347747803
000070 00 00 00 c0 3c 69 c0 bf 00 00 00 c0 29 f4 c4 bf
       -0.1282115876674652 -0.16370126605033875
000080 00 00 00 e0 0f 03 c6 bf 00 00 00 20 3f d3 ca bf
       -0.17196844518184662 -0.2095717340707779
000090 00 00 00 c0 08 01 cc 3f 00 00 00 a0 4d 87 97 bf
       0.21878156065940857 -0.022977078333497047

bias f8 [3]
000000 00 00 00 40 67 ef df 3f 00 00 00 a0 d7 8d eb 3f
       0.49898701906204224 0.8610647320747375
000010 00 00 00 a0 cd 32 c7 3f
       0.18123789131641388
